AFFBlock.ckpt (torch, 33455 bytes, 52 tensors)

global_rep.0.norm1.weight f4 [16]
1.0 1.0 1.0 1.0 1.0 1.0 1.0 1.0
1.0 1.0 1.0 1.0 1.0 1.0 1.0 1.0
00000000: 0000 803f 0000 803f 0000 803f 0000 803f
00000010: 0000 803f 0000 803f 0000 803f 0000 803f
00000020: 0000 803f 0000 803f 0000 803f 0000 803f
00000030: 0000 803f 0000 803f 0000 803f 0000 803f

global_rep.0.norm1.bias f4 [16]
0.0 0.0 0.0 0.0 0.0 0.0 0.0 0.0
0.0 0.0 0.0 0.0 0.0 0.0 0.0 0.0
00000000: 0000 0000 0000 0000 0000 0000 0000 0000
00000010: 0000 0000 0000 0000 0000 0000 0000 0000
00000020: 0000 0000 0000 0000 0000 0000 0000 0000
00000030: 0000 0000 0000 0000 0000 0000 0000 0000

global_rep.0.norm1.running_mean f4 [16]
0.0 0.0 0.0 0.0 0.0 0.0 0.0 0.0
0.0 0.0 0.0 0.0 0.0 0.0 0.0 0.0
00000000: 0000 0000 0000 0000 0000 0000 0000 0000
00000010: 0000 0000 0000 0000 0000 0000 0000 0000
00000020: 0000 0000 0000 0000 0000 0000 0000 0000
00000030: 0000 0000 0000 0000 0000 0000 0000 0000

global_rep.0.norm1.running_var f4 [16]
1.0 1.0 1.0 1.0 1.0 1.0 1.0 1.0
1.0 1.0 1.0 1.0 1.0 1.0 1.0 1.0
00000000: 0000 803f 0000 803f 0000 803f 0000 803f
00000010: 0000 803f 0000 803f 0000 803f 0000 803f
00000020: 0000 803f 0000 803f 0000 803f 0000 803f
00000030: 0000 803f 0000 803f 0000 803f 0000 803f

global_rep.0.filter.w1 f4 [2, 8, 2, 2]
-0.0044296924 -0.04512406 0.019670757 0.023138592 0.0074722986 -0.010244201 0.0077496152 0.0004316881
0.011562724 0.0026174139 -0.008569541 0.0346195 0.02383493 -0.030480362 -0.007575066 0.018413948
-0.020607233 -0.008384864 -0.004611752 0.020304266 0.023352958 0.0005518575 -0.044301134 -0.012725424
0.005843301 0.03483583 0.028213594 -0.014120477 -0.025336659 0.015822494 -0.013921683 0.04495695
0.035489745 -0.04382562 -0.006804409 0.020747697 -0.024845 -0.01996045 -0.010835296 0.010948483
3.4663353e-05 0.0123264175 0.038422726 0.0064050327 -0.008979856 0.004225133 0.00072891166 0.00872924
-0.07097001 0.028715016 0.014467926 0.04111571 -0.0059495503 0.011268952 0.0027078912 -0.032718137
-0.0045748977 0.018813517 -0.011914941 0.037862632 0.0030483648 0.030229893 -0.011163379 -0.012849795
00000000: f426 91bb 02d4 38bd 9124 a13c 258d bd3c
00000010: 2fda f43b 4bd7 27bc 7cf0 fd3b 3254 e239
00000020: 9471 3d3c eb88 2b3b 4367 0cbc 2dcd 0d3d
00000030: 7941 c33c f4b1 f9bc 4238 f8bb d9d8 963c
00000040: 80d0 a8bc ab60 09bc 2e1e 97bb 2255 a63c
00000050: b44e bf3c 88aa 103a 1b75 35bd 4c7e 50bc
00000060: 2979 bf3b 04b0 0e3d 3220 e73c 9359 67bc
00000070: d38e cfbc 2d9e 813c c517 64bc c724 383d
00000080: b25d 113d 7e82 33bd 85f7 debb 13f7 a93c
00000090: be87 cbbc 1984 a3bc 8686 31bc 4461 333c
000000a0: 7e63 1138 bef4 493c 2661 1d3d 4fe1 d13b
000000b0: 3f20 13bc fc72 8a3b 6f14 3f3a 1605 0f3c
000000c0: b958 91bd c13b eb3c e10a 6d3c f268 283d
000000d0: 72f4 c2bb 69a1 383c e076 313b 7403 06bd
000000e0: 06e9 95bb ce1e 9a3c e236 43bc d915 1b3d
000000f0: 13c7 473b aea4 f73c 9be6 36bc f287 52bc

global_rep.0.filter.b1 f4 [2, 8, 2]
-0.019045303 0.018108819 -0.027875401 -0.026264876 -0.012067561 -0.014843367 -0.009552643 0.046277814
0.03594525 0.01872998 -0.009654614 -0.01979375 -0.01924115 0.012571507 -0.050743666 -0.02392158
-0.013161499 -0.01639104 -0.014901959 0.012153615 0.00022271997 0.018854281 -0.028664932 0.025300168
-0.009022136 -0.027412707 -0.0020839514 0.003072728 0.018457271 -0.0067744944 0.011132691 -0.003639278
00000000: e504 9cbc f258 943c f45a e4bc 7029 d7bc
00000010: 05b7 45bc 9831 73bc b082 1cbc ce8d 3d3d
00000020: 543b 133d 9d6f 993c 632e 1ebc 8126 a2bc
00000030: 9e9f 9dbc b9f8 4d3c 97d8 4fbd 30f7 c3bc
00000040: 54a3 57bc 8146 86bc 5927 74bc f51f 473c
00000050: f089 6939 4b74 9a3c b8d2 eabc 4c42 cf3c
00000060: 95d1 13bc 9d90 e0bc e792 08bb d25f 493b
00000070: b433 973c 94fc ddbb e465 363c f480 6ebb

global_rep.0.filter.w2 f4 [2, 8, 2, 2]
0.0007209311 0.02853428 0.020014174 -0.028678266 -0.007669522 -0.00032306506 -0.017435111 0.015968611
0.0019908005 0.0219788 0.012437688 0.011710121 -0.0051957737 -0.019047743 0.020134903 -0.002250322
0.024770238 -0.01306639 -0.0033407535 0.008359313 -0.012016647 -0.019866325 0.01682549 -0.029079448
0.058030374 0.009905358 0.029141303 -0.0061689704 -0.005562065 -0.0041589937 0.035197254 -0.030265521
-0.02077749 0.0045020194 -0.0027231511 -0.007083472 -0.02282957 -0.008354219 -0.01786289 -0.010291858
0.013661828 -0.008977028 0.03505405 -0.05984305 -0.007200506 -0.007710956 -0.010846183 0.0006102735
-0.047183618 0.013534368 -0.016049145 0.0008001781 -0.024331186 0.020140259 0.004409449 0.01234001
-0.041631803 -0.047913574 -0.002238359 -0.017916648 -0.017794888 0.02833328 0.015207045 -0.008642351
00000000: defc 3c3a b9c0 e93c c4f4 a33c afee eabc
00000010: 9d50 fbbb 0f61 a9b9 14d4 8ebc 9bd0 823c
00000020: 1778 023b e20c b43c 72c7 4b3c cfdb 3f3c
00000030: 4f41 aabb 030a 9cbc f4f1 a43c 237a 13bb
00000040: f4ea ca3c 6914 56bc 8bf0 5abb 80f5 083c
00000050: 78e1 44bc b4be a2bc 9cd5 893c 0638 eebc
00000060: 42b1 6d3d 154a 223c beb9 ee3c 1325 cabb
00000070: fc41 b6bb 2b48 88bb ff2a 103d 66ef f7bc
00000080: 8e35 aabc ad85 933b e576 32bb 781c e8bb
00000090: 1405 bbbc 22e0 08bc 3255 92bc 2e9f 28bc
000000a0: dcd5 5f3c 6214 13bc d694 0f3d fc1d 75bd
000000b0: 39f2 ebbb 30ac fcbb 30b4 31bc c3fa 1f3a
000000c0: 9c43 41bd 41bf 5d3c 7f79 83bc 0bc3 513a
000000d0: 3252 c7bc 2ffd a43c 247d 903b c12d 4a3c
000000e0: 1c86 2abd 0641 44bd 6fb1 12bb efc5 92bc
000000f0: 96c6 91bc 321b e83c f826 793c a698 0dbc

global_rep.0.filter.b2 f4 [2, 8, 2]
-0.015307458 -0.021723777 -0.019545184 0.00228106 0.018698534 0.039696507 -0.01238961 -0.016120471
0.009607507 -0.0020438791 0.041845262 -0.0053329393 -0.014950032 -0.000550742 0.020227598 0.03599664
-0.015291619 -0.009998956 -0.03052932 -0.027454795 -0.009663895 -0.009794633 0.033271246 -0.022461697
0.01589308 0.008406213 -0.015921423 -0.025529005 -0.043752175 -0.0010630098 -0.0043217014 -0.036125433
00000000: 22cc 7abc 10f6 b1bc 391d a0bc d67d 153b
00000010: ab2d 993c ce98 223d cafd 4abc 140f 84bc
00000020: ce68 1d3c 9af2 05bb f065 2b3d f0bf aebb
00000030: fbf0 74bc ac5f 10ba 59b4 a53c 3671 133d
00000040: b389 7abc a9d2 23bc a018 fabc e1e8 e0bc
00000050: 5055 1ebc ab79 20bc 6e47 083d 9801 b8bc
00000060: 3432 823c 36ba 093c a56d 82bc 3422 d1bc
00000070: 7b35 33bd b154 8bba 0f9d 8dbb 43f8 13bd

global_rep.0.norm2.weight f4 [16]
1.0 1.0 1.0 1.0 1.0 1.0 1.0 1.0
1.0 1.0 1.0 1.0 1.0 1.0 1.0 1.0
00000000: 0000 803f 0000 803f 0000 803f 0000 803f
00000010: 0000 803f 0000 803f 0000 803f 0000 803f
00000020: 0000 803f 0000 803f 0000 803f 0000 803f
00000030: 0000 803f 0000 803f 0000 803f 0000 803f

global_rep.0.norm2.bias f4 [16]
0.0 0.0 0.0 0.0 0.0 0.0 0.0 0.0
0.0 0.0 0.0 0.0 0.0 0.0 0.0 0.0
00000000: 0000 0000 0000 0000 0000 0000 0000 0000
00000010: 0000 0000 0000 0000 0000 0000 0000 0000
00000020: 0000 0000 0000 0000 0000 0000 0000 0000
00000030: 0000 0000 0000 0000 0000 0000 0000 0000

global_rep.0.norm2.running_mean f4 [16]
0.0 0.0 0.0 0.0 0.0 0.0 0.0 0.0
0.0 0.0 0.0 0.0 0.0 0.0 0.0 0.0
00000000: 0000 0000 0000 0000 0000 0000 0000 0000
00000010: 0000 0000 0000 0000 0000 0000 0000 0000
00000020: 0000 0000 0000 0000 0000 0000 0000 0000
00000030: 0000 0000 0000 0000 0000 0000 0000 0000

global_rep.0.norm2.running_var f4 [16]
1.0 1.0 1.0 1.0 1.0 1.0 1.0 1.0
1.0 1.0 1.0 1.0 1.0 1.0 1.0 1.0
00000000: 0000 803f 0000 803f 0000 803f 0000 803f
00000010: 0000 803f 0000 803f 0000 803f 0000 803f
00000020: 0000 803f 0000 803f 0000 803f 0000 803f
00000030: 0000 803f 0000 803f 0000 803f 0000 803f

global_rep.0.mlp.conv.0.0.weight f4 [1, 16, 1, 1]
-0.027602077 -0.12098488 0.060174286 0.07191837 -0.060797393 0.20156133 -0.19575354 0.10452494
-0.07639906 0.041455716 0.19356719 -0.11092028 0.11818674 -0.079006106 0.08598584 -0.22390774
00000000: c01d e2bc ecc6 f7bd 5079 763d f049 933d
00000010: b006 79bd 1866 4e3e 9e73 48be 2c11 d63d
00000020: 1c77 9cbd 78cd 293d 7a36 463e 2c2a e3bd
00000030: e40b f23d f4cd a1bd 5819 b03d 1248 65be

global_rep.0.mlp.conv.1.0.weight f4 [1, 1, 3, 3]
0.27677545 0.104316354 0.0640434 -0.24055462 -0.29090548 0.24192896 0.08568999 -0.11915991
-0.053037554
00000000: 83b5 8d3e d0a3 d53d 3029 833d f353 76be
00000010: 90f1 94be 3abc 773e 3c7e af3d 1c0a f4bd
00000020: e83d 59bd

global_rep.0.mlp.conv.2.weight f4 [16, 1, 1, 1]
-0.6873499 0.17811978 -0.028513074 -0.14797544 0.8466811 0.6723331 -0.56539 -0.44401145
0.3805126 -0.73339117 0.5671592 0.489074 0.39359367 -0.1275096 0.6139121 0.41468847
00000000: 2af6 2fbf 0865 363e 4094 e9bc e086 17be
00000010: 18c0 583f 061e 2c3f 66bd 10bf 7855 e3be
00000020: 8cd2 c23e 86bf 3bbf 5831 113f e867 fa3e
00000030: 1c85 c93e e091 02be 5829 1d3f 0c52 d43e

global_rep.0.mlp.conv.3.weight f4 [16]
1.0 1.0 1.0 1.0 1.0 1.0 1.0 1.0
1.0 1.0 1.0 1.0 1.0 1.0 1.0 1.0
00000000: 0000 803f 0000 803f 0000 803f 0000 803f
00000010: 0000 803f 0000 803f 0000 803f 0000 803f
00000020: 0000 803f 0000 803f 0000 803f 0000 803f
00000030: 0000 803f 0000 803f 0000 803f 0000 803f

global_rep.0.mlp.conv.3.bias f4 [16]
0.0 0.0 0.0 0.0 0.0 0.0 0.0 0.0
0.0 0.0 0.0 0.0 0.0 0.0 0.0 0.0
00000000: 0000 0000 0000 0000 0000 0000 0000 0000
00000010: 0000 0000 0000 0000 0000 0000 0000 0000
00000020: 0000 0000 0000 0000 0000 0000 0000 0000
00000030: 0000 0000 0000 0000 0000 0000 0000 0000

global_rep.0.mlp.conv.3.running_mean f4 [16]
0.0 0.0 0.0 0.0 0.0 0.0 0.0 0.0
0.0 0.0 0.0 0.0 0.0 0.0 0.0 0.0
00000000: 0000 0000 0000 0000 0000 0000 0000 0000
00000010: 0000 0000 0000 0000 0000 0000 0000 0000
00000020: 0000 0000 0000 0000 0000 0000 0000 0000
00000030: 0000 0000 0000 0000 0000 0000 0000 0000

global_rep.0.mlp.conv.3.running_var f4 [16]
1.0 1.0 1.0 1.0 1.0 1.0 1.0 1.0
1.0 1.0 1.0 1.0 1.0 1.0 1.0 1.0
00000000: 0000 803f 0000 803f 0000 803f 0000 803f
00000010: 0000 803f 0000 803f 0000 803f 0000 803f
00000020: 0000 803f 0000 803f 0000 803f 0000 803f
00000030: 0000 803f 0000 803f 0000 803f 0000 803f

global_rep.1.norm1.weight f4 [16]
1.0 1.0 1.0 1.0 1.0 1.0 1.0 1.0
1.0 1.0 1.0 1.0 1.0 1.0 1.0 1.0
00000000: 0000 803f 0000 803f 0000 803f 0000 803f
00000010: 0000 803f 0000 803f 0000 803f 0000 803f
00000020: 0000 803f 0000 803f 0000 803f 0000 803f
00000030: 0000 803f 0000 803f 0000 803f 0000 803f

global_rep.1.norm1.bias f4 [16]
0.0 0.0 0.0 0.0 0.0 0.0 0.0 0.0
0.0 0.0 0.0 0.0 0.0 0.0 0.0 0.0
00000000: 0000 0000 0000 0000 0000 0000 0000 0000
00000010: 0000 0000 0000 0000 0000 0000 0000 0000
00000020: 0000 0000 0000 0000 0000 0000 0000 0000
00000030: 0000 0000 0000 0000 0000 0000 0000 0000

global_rep.1.norm1.running_mean f4 [16]
0.0 0.0 0.0 0.0 0.0 0.0 0.0 0.0
0.0 0.0 0.0 0.0 0.0 0.0 0.0 0.0
00000000: 0000 0000 0000 0000 0000 0000 0000 0000
00000010: 0000 0000 0000 0000 0000 0000 0000 0000
00000020: 0000 0000 0000 0000 0000 0000 0000 0000
00000030: 0000 0000 0000 0000 0000 0000 0000 0000

global_rep.1.norm1.running_var f4 [16]
1.0 1.0 1.0 1.0 1.0 1.0 1.0 1.0
1.0 1.0 1.0 1.0 1.0 1.0 1.0 1.0
00000000: 0000 803f 0000 803f 0000 803f 0000 803f
00000010: 0000 803f 0000 803f 0000 803f 0000 803f
00000020: 0000 803f 0000 803f 0000 803f 0000 803f
00000030: 0000 803f 0000 803f 0000 803f 0000 803f

global_rep.1.filter.w1 f4 [2, 8, 2, 2]
0.031164791 -0.04707037 -0.004134372 -0.010212681 -0.01434095 0.0031281821 0.0025912672 0.0063399277
-0.031518064 -0.010293195 0.0033810963 -0.005391398 0.0027200019 0.019108534 -0.038789175 0.0011123101
-0.035198886 -0.010010277 0.011357045 0.0072320527 -0.0032056416 -0.0020735292 0.031629544 0.03783283
-0.0091199605 -0.004139021 0.004357883 0.018624436 0.0132840015 0.01556401 0.036550343 2.6920457e-06
-0.024943577 -0.007940239 -0.012824788 -0.020656832 -0.01900817 0.03690764 0.037244394 -0.0052443165
0.02024307 -0.028508399 0.004254775 -0.027872898 -0.02349732 -0.013637302 -0.011828062 0.014782935
-0.027082099 -0.019252133 -0.012484961 0.027993705 0.020501567 -0.00840799 -0.03200536 0.006014778
-0.019744303 0.011267187 0.029974753 -0.005677985 -0.014186082 0.035636723 -0.012675967 0.00067005923
00000000: 4e4d ff3c dccc 40bd a079 87bb 1753 27bc
00000010: 4ef6 6abc 3002 4d3b 40d2 293b 2bbf cf3b
00000020: 1619 01bd caa4 28bc 6295 5d3b 53aa b0bb
00000030: 0f42 323b 8089 9c3c 66e1 1ebd efca 913a
00000040: b52c 10bd 2502 24bc e612 3a3c dbfa ec3b
00000050: be15 52bb 0ce4 07bb fb8d 013d 99f6 1a3d
00000060: e36b 15bc a0a0 87bb 92cc 8e3b 4692 983c
00000070: 24a5 593c 3000 7f3c d0b5 153d fea8 3436
00000080: 7956 ccbc c717 02bc 0f1f 52bc 8438 a9bc
00000090: 06b7 9bbc 772c 173d 948d 183d 84d8 abbb
000000a0: cbd4 a53c 728a e9bc a46b 8b3b b455 e4bc
000000b0: 747d c0bc fe6e 5fbc 7dca 41bc 2034 723c
000000c0: 47db ddbc a6b6 9dbc b98d 4cbc 0e53 e53c
000000d0: e7f2 a73c abc1 09bc 0d18 03bd 9d17 c53b
000000e0: cebe a1bc 029a 383c 9d8d f53c 640e babb
000000f0: be6c 68bc d0f7 113d dcae 4fbc eaa6 2f3a

global_rep.1.filter.b1 f4 [2, 8, 2]
-0.013288154 0.022109803 -0.008782389 0.030877432 -0.0191488 -0.016505435 0.006663758 -0.01058534
0.026154356 -0.027450383 -0.009584872 0.02277152 0.018698892 -0.013046924 0.001995243 0.03631078
0.015087905 -0.050836682 0.018423261 -0.008441371 0.02288123 -0.030495316 -0.026388403 0.005843559
-0.008161179 0.026440801 0.008985438 -0.03932778 0.0077092214 -0.04209936 0.016257532 -0.025685042
00000000: 8fb6 59bc 9e1f b53c 02e4 0fbc abf2 fc3c
00000010: f2dd 9cbc 6836 87bc a75b da3b 226e 2dbc
00000020: a941 d63c a0df e0bc de09 1dbc 578b ba3c
00000030: 6b2e 993c c4c2 55bc 9fc2 023b 9dba 143d
00000040: 4333 773c 203a 50bd 61ec 963c ad4d 0abc
00000050: 6b71 bb3c 50d1 f9bc 7e2c d8bc 537b bf3b
00000060: 77b6 05bc 619a d83c a937 133c 2b16 21bd
00000070: a39d fc3b 6170 2cbd 842e 853c 7069 d2bc

global_rep.1.filter.w2 f4 [2, 8, 2, 2]
-0.021652844 -0.0011348563 0.022944663 -0.036816858 0.037302073 0.030715462 -0.010208577 -0.013656238
-0.0055665486 0.036220573 -0.035057258 0.04073068 0.011614204 -0.007944739 -0.0011128015 0.01029125
-0.008356317 0.0015844401 -0.05283224 0.014472206 -0.003460421 -0.012033754 -0.015091323 0.025531083
-0.0016361615 0.019782977 -0.016967492 0.019333838 -0.011657796 -0.015032556 0.008367806 0.0051923078
0.010889728 -0.016991023 -0.014830139 0.013006454 0.011301693 -0.022561576 -0.0088861985 0.023735456
0.0135996435 0.018522816 0.014839781 -0.01901785 0.004898666 -0.00026250305 0.016578374 -0.015523502
0.021021936 -0.016322901 -0.012732272 -0.012318062 0.030967006 -0.0041498514 0.015069046 -0.0010743843
0.007457455 0.017197557 0.01485725 0.001432765 -0.004480767 -0.024798537 0.02297273 -0.00036521762
00000000: 4e61 b1bc 75bf 94ba 72f6 bb3c 46cd 16bd
00000010: 0fca 183d fe9e fb3c e041 27bc 6abe 5fbc
00000020: 9867 b6bb 065c 143d 3398 0fbd 37d5 263d
00000030: 8149 3e3c a72a 02bc 6cdb 91ba a29c 283c
00000040: efe8 08bc fdac cf3a 9e66 58bd d51c 6d3c
00000050: 3bc8 62bb 3929 45bc 9941 77bc 9026 d13c
00000060: 7874 d6ba e90f a23c 69ff 8abc ff61 9e3c
00000070: 5700 3fbc 1c4b 76bc 1f19 093c 3c24 aa3b
00000080: d46a 323c c230 8bbc 1dfa 72bc 0619 553c
00000090: bc2a 393c 0ed3 b8bc 6b97 11bc dc70 c23c
000000a0: 0ad1 5e3c 29bd 973c 8e22 733c 52cb 9bbc
000000b0: fd84 a03b 90a0 89b9 5fcf 873c 4956 7ebc
000000c0: 3236 ac3c 9bb7 85bc 059b 50bc b2d1 49bc
000000d0: 85ae fd3c 7afb 87bb 29e4 763c 5bd2 8cba
000000e0: ab5d f43b e4e1 8c3c d36b 733c 9ecb bb3a
000000f0: 66d3 92bb 4d26 cbbc 4f31 bc3c ae7a bfb9

global_rep.1.filter.b2 f4 [2, 8, 2]
-0.012583665 -0.020094736 0.007783737 0.03472201 0.020274574 -0.019796168 -0.020343767 -0.0037429356
-0.009764669 0.026502568 0.00398096 -0.002707989 0.006308135 0.02263009 -0.027465502 -0.024374545
0.013568176 -0.0005248681 -0.02502747 0.015430417 0.0010075108 -0.0001843054 -0.013174824 -0.018806262
0.0048154173 -0.029221816 0.011580859 -0.0054185274 0.021911997 -0.00044987432 0.015285421 0.033070136
00000000: b72b 4ebc b79d a4bc b80e ff3b ab38 0e3d
00000010: dd16 a63c 932b a2bc f9a7 a6bc 0a4c 75bb
00000020: fefb 1fbc ea1b d93c b772 823b 8478 31bb
00000030: 79b4 ce3b bd62 b93c 55ff e0bc 20ad c7bc
00000040: 0e4d 5e3c 4d97 09ba 6906 cdbc dccf 7c3c
00000050: 740e 843a 1b42 41b9 38db 57bc 970f 9abc
00000060: a6ca 9d3b 9762 efbc a5bd 3d3c e78d b1bb
00000070: ca80 b33c 1cdd ebb9 b46f 7a3c 8d74 073d

global_rep.1.norm2.weight f4 [16]
1.0 1.0 1.0 1.0 1.0 1.0 1.0 1.0
1.0 1.0 1.0 1.0 1.0 1.0 1.0 1.0
00000000: 0000 803f 0000 803f 0000 803f 0000 803f
00000010: 0000 803f 0000 803f 0000 803f 0000 803f
00000020: 0000 803f 0000 803f 0000 803f 0000 803f
00000030: 0000 803f 0000 803f 0000 803f 0000 803f

global_rep.1.norm2.bias f4 [16]
0.0 0.0 0.0 0.0 0.0 0.0 0.0 0.0
0.0 0.0 0.0 0.0 0.0 0.0 0.0 0.0
00000000: 0000 0000 0000 0000 0000 0000 0000 0000
00000010: 0000 0000 0000 0000 0000 0000 0000 0000
00000020: 0000 0000 0000 0000 0000 0000 0000 0000
00000030: 0000 0000 0000 0000 0000 0000 0000 0000

global_rep.1.norm2.running_mean f4 [16]
0.0 0.0 0.0 0.0 0.0 0.0 0.0 0.0
0.0 0.0 0.0 0.0 0.0 0.0 0.0 0.0
00000000: 0000 0000 0000 0000 0000 0000 0000 0000
00000010: 0000 0000 0000 0000 0000 0000 0000 0000
00000020: 0000 0000 0000 0000 0000 0000 0000 0000
00000030: 0000 0000 0000 0000 0000 0000 0000 0000

global_rep.1.norm2.running_var f4 [16]
1.0 1.0 1.0 1.0 1.0 1.0 1.0 1.0
1.0 1.0 1.0 1.0 1.0 1.0 1.0 1.0
00000000: 0000 803f 0000 803f 0000 803f 0000 803f
00000010: 0000 803f 0000 803f 0000 803f 0000 803f
00000020: 0000 803f 0000 803f 0000 803f 0000 803f
00000030: 0000 803f 0000 803f 0000 803f 0000 803f

global_rep.1.mlp.conv.0.0.weight f4 [1, 16, 1, 1]
-0.20443422 -0.1984519 -0.05550465 -0.07988316 -0.03367105 0.24819857 -0.24837223 -0.008905411
0.114712596 -0.03632921 -0.07819176 -0.08047384 0.002202779 0.097643375 -0.14672288 -0.108757555
00000000: 3457 51be fa36 4bbe d858 63bd c899 a3bd
00000010: a8ea 09bd c427 7e3e 4a55 7ebe 00e8 11bc
00000020: 70ee ea3d f0cd 14bd 0023 a0bd 78cf a4bd
00000030: 805c 103b 40f9 c73d 863e 16be 48bc debd

global_rep.1.mlp.conv.1.0.weight f4 [1, 1, 3, 3]
-0.21946737 0.16463089 -0.20758674 0.048337102 0.06338072 -0.23115742 0.22277972 0.15353206
-0.008697063
00000000: 0ebc 60be 0095 283e 9e91 54be 20fd 453d
00000010: c0cd 813d 88b4 6cbe 5e20 643e 8237 1d3e
00000020: 207e 0ebc

global_rep.1.mlp.conv.2.weight f4 [16, 1, 1, 1]
0.009744048 -0.47840035 -0.16774035 0.70180905 0.13559818 0.74319017 0.8381294 0.26193607
-0.41426706 0.089624405 -0.7691654 0.5875362 0.83148026 -0.65228057 -0.61488616 -0.25198936
00000000: 80a5 1f3c e4f0 f4be 20c4 2bbe c2a9 333f
00000010: 40da 0a3e b641 3e3f a68f 563f 7c1c 863e
00000020: d01a d4be 008d b73d 06e8 44bf c668 163f
00000030: e4db 543f dcfb 26bf 2e69 1dbf c004 81be

global_rep.1.mlp.conv.3.weight f4 [16]
1.0 1.0 1.0 1.0 1.0 1.0 1.0 1.0
1.0 1.0 1.0 1.0 1.0 1.0 1.0 1.0
00000000: 0000 803f 0000 803f 0000 803f 0000 803f
00000010: 0000 803f 0000 803f 0000 803f 0000 803f
00000020: 0000 803f 0000 803f 0000 803f 0000 803f
00000030: 0000 803f 0000 803f 0000 803f 0000 803f

global_rep.1.mlp.conv.3.bias f4 [16]
0.0 0.0 0.0 0.0 0.0 0.0 0.0 0.0
0.0 0.0 0.0 0.0 0.0 0.0 0.0 0.0
00000000: 0000 0000 0000 0000 0000 0000 0000 0000
00000010: 0000 0000 0000 0000 0000 0000 0000 0000
00000020: 0000 0000 0000 0000 0000 0000 0000 0000
00000030: 0000 0000 0000 0000 0000 0000 0000 0000

global_rep.1.mlp.conv.3.running_mean f4 [16]
0.0 0.0 0.0 0.0 0.0 0.0 0.0 0.0
0.0 0.0 0.0 0.0 0.0 0.0 0.0 0.0
00000000: 0000 0000 0000 0000 0000 0000 0000 0000
00000010: 0000 0000 0000 0000 0000 0000 0000 0000
00000020: 0000 0000 0000 0000 0000 0000 0000 0000
00000030: 0000 0000 0000 0000 0000 0000 0000 0000

global_rep.1.mlp.conv.3.running_var f4 [16]
1.0 1.0 1.0 1.0 1.0 1.0 1.0 1.0
1.0 1.0 1.0 1.0 1.0 1.0 1.0 1.0
00000000: 0000 803f 0000 803f 0000 803f 0000 803f
00000010: 0000 803f 0000 803f 0000 803f 0000 803f
00000020: 0000 803f 0000 803f 0000 803f 0000 803f
00000030: 0000 803f 0000 803f 0000 803f 0000 803f

global_rep.2.weight f4 [16]
1.0 1.0 1.0 1.0 1.0 1.0 1.0 1.0
1.0 1.0 1.0 1.0 1.0 1.0 1.0 1.0
00000000: 0000 803f 0000 803f 0000 803f 0000 803f
00000010: 0000 803f 0000 803f 0000 803f 0000 803f
00000020: 0000 803f 0000 803f 0000 803f 0000 803f
00000030: 0000 803f 0000 803f 0000 803f 0000 803f

global_rep.2.bias f4 [16]
0.0 0.0 0.0 0.0 0.0 0.0 0.0 0.0
0.0 0.0 0.0 0.0 0.0 0.0 0.0 0.0
00000000: 0000 0000 0000 0000 0000 0000 0000 0000
00000010: 0000 0000 0000 0000 0000 0000 0000 0000
00000020: 0000 0000 0000 0000 0000 0000 0000 0000
00000030: 0000 0000 0000 0000 0000 0000 0000 0000

global_rep.2.running_mean f4 [16]
0.0 0.0 0.0 0.0 0.0 0.0 0.0 0.0
0.0 0.0 0.0 0.0 0.0 0.0 0.0 0.0
00000000: 0000 0000 0000 0000 0000 0000 0000 0000
00000010: 0000 0000 0000 0000 0000 0000 0000 0000
00000020: 0000 0000 0000 0000 0000 0000 0000 0000
00000030: 0000 0000 0000 0000 0000 0000 0000 0000

global_rep.2.running_var f4 [16]
1.0 1.0 1.0 1.0 1.0 1.0 1.0 1.0
1.0 1.0 1.0 1.0 1.0 1.0 1.0 1.0
00000000: 0000 803f 0000 803f 0000 803f 0000 803f
00000010: 0000 803f 0000 803f 0000 803f 0000 803f
00000020: 0000 803f 0000 803f 0000 803f 0000 803f
00000030: 0000 803f 0000 803f 0000 803f 0000 803f

conv_proj.block.conv.weight f4 [16, 16, 1, 1]
0.09018135 -0.19558018 0.12923187 -0.2072722 0.099004716 0.03523472 -0.10599071 0.21176383
-0.048533767 0.037425607 0.1475051 0.10526645 0.060055166 -0.06446266 0.09723142 -0.2496354
-0.13081944 0.10837743 0.15923715 0.23016348 -0.22451842 -0.07425013 0.22530586 0.24906301
-0.049850255 -0.19696534 -0.1351636 0.023300111 0.17400336 -0.051246673 0.09728998 0.10555413
0.087497175 -0.24954009 0.057931095 -0.24528837 -0.102552384 -0.21361569 0.2033816 -0.21490425
0.22744626 -0.021937907 -0.1291925 0.23544228 0.17343429 0.11253235 -0.04466003 -0.12378341
-0.1716888 0.20970815 -0.11254722 0.08226529 -0.022664845 -0.24848497 0.08676186 0.15290114
0.1739515 0.091383666 -0.24452111 0.07848659 0.20824847 -0.24930745 -0.24302447 -0.19931912
-0.016027182 -0.10823631 -0.0051026046 -0.0025776029 -0.17546621 0.105971694 -0.18594491 -0.08438316
0.13111874 0.093868524 -0.19435087 0.20610431 0.18374228 -0.093214124 0.18253815 0.11865166
-0.15070376 0.1490933 0.07366601 0.040744156 -0.11855644 0.16658625 0.20308098 -0.18210715
-0.042310715 -0.049468517 -0.149732 0.19258803 -0.14945441 -0.19687593 0.043481886 0.02742213
-0.045130163 -0.027057022 0.08663651 -0.23352158 -0.20387092 -0.19661024 -0.06838617 0.13738483
0.12313756 0.028992087 0.11547449 -0.19418979 -0.13608006 0.14655879 -0.014510393 0.12589857
0.14188474 0.21265626 0.06735796 0.010063499 -0.03607738 -0.15509611 -0.22365832 -0.08071342
0.058554232 -0.12192023 0.21489453 -0.22573903 -0.23549569 0.10045138 -0.23227859 -0.23408464
-0.05147654 -0.1852611 -0.029153407 0.1065934 -0.077723354 -0.07665938 -0.16667303 0.18057561
-0.24221915 -0.24289837 0.17180738 -0.041335553 0.08097452 0.24144787 -0.13031659 -0.052354574
-0.24055436 0.21883711 0.22173908 -0.018186092 -0.10568929 -0.06708512 -0.17791548 0.09542486
-0.007863134 -0.24495262 -0.06935391 0.04075259 -0.23121938 -0.09089756 0.024193525 0.17698738
-0.19158748 0.1945535 0.20379236 0.054890186 0.022309959 0.22020298 -0.03841439 -0.14150599
0.22672111 0.0027258396 0.1239759 0.23805249 0.0787161 0.1355924 0.18529174 0.011175364
-0.1720781 -0.18156993 0.24365151 0.024832368 -0.1029425 0.086830795 -0.120077014 0.043749064
0.22853231 -0.24864396 0.01759395 0.02826792 -0.099790454 -0.017959565 0.008798122 0.19716883
0.121515185 -0.0577541 -0.09112716 -0.053187102 0.12842193 0.03490877 0.18675002 -0.23298988
0.07133433 -0.20389932 -0.07408309 0.18995702 0.17388931 -0.22172326 -0.20907974 -0.03392732
-0.031238884 0.21847555 0.014769703 0.21757826 0.027039945 -0.22612488 -0.24085933 -0.20330742
0.02503997 -0.24450019 -0.153748 0.055642337 -0.052172214 -0.2389361 -0.16828021 -0.034946263
-0.016848505 -0.042102396 0.04904887 0.115747005 -0.18295851 -0.24553749 -0.18405259 -0.15032378
0.0361934 -0.14354095 0.04430896 0.21997267 0.118015826 -0.00045782328 -0.035942525 0.1350609
-0.14711338 -0.0013145208 0.043215245 0.24583578 -0.22694147 0.13597715 -0.24227262 -0.13708073
-0.21261463 0.08811453 0.13495678 0.23260823 -0.1305651 -0.12186068 0.10795373 -0.048781514
00000000: 00b1 b83d 2c46 48be 5c55 043e 2a3f 54be
00000010: fcc2 ca3d 4852 103d a811 d9bd 9ed8 583e
00000020: 58cb 46bd 984b 193d 940b 173e f095 d73d
00000030: 68fc 753d 0005 84bd 4421 c73d 6ca0 7fbe
00000040: 88f5 05be fcf4 dd3d 100f 233e faaf 6b3e
00000050: 28e8 65be 7410 98bd 94b6 663e 600a 7f3e
00000060: c82f 4cbd 48b1 49be 5468 0abe e0df be3c
00000070: f02d 323e 08e8 51bd f83f c73d c42c d83d
00000080: b831 b33d 7087 7fbe 2849 6d3d e02c 7bbe
00000090: fc06 d2bd 12be 5abe 4443 503e dc0f 5cbe
000000a0: ace7 683e 20b7 b3bc 0a4b 04be c817 713e
000000b0: c298 313e 5c77 e63d 70ed 36bd 2882 fdbd
000000c0: 30cf 2fbe bcbd 563e 287f e6bd b47a a83d
000000d0: a0ab b9bc d872 7ebe 34b0 b13d 1e92 1c3e
000000e0: 5820 323e 5c27 bb3d be63 7abe 94bd a03d
000000f0: 163f 553e 744a 7fbe 68db 78be 501a 4cbe
00000100: 704b 83bc 00ab ddbd c033 a7bb 00ed 28bb
00000110: 6aad 33be b007 d93d 5868 3ebe 14d1 acbd
00000120: fe43 063e 243e c03d ea03 47be 020d 533e
00000130: f026 3c3e 0ce7 bebd 48eb 3a3e a4ff f23d
00000140: 1652 1abe eaab 183e 34de 963d 58e3 263d
00000150: b8cd f2bd 9695 2a3e 76f4 4f3e 4c7a 3abe
00000160: 004e 2dbd 809f 4abd 5853 19be cc35 453e
00000170: 940a 19be d899 49be 101a 323d 60a4 e03c
00000180: 68da 38bd b0a6 ddbc 7c6e b13d 4820 6fbe
00000190: 8ac3 50be 3254 49be 0c0e 8cbd 9cae 0c3e
000001a0: 8c2f fc3d d080 ed3c e47d ec3d b0d9 46be
000001b0: 9258 0bbe 8213 163e 00bd 6dbc 8eeb 003e
000001c0: 3c4a 113e 90c2 593e f8f2 893d 60e1 243c
000001d0: e0c5 13bd 84d1 1ebe b006 65be 144d a5bd
000001e0: 90d6 6f3d 50b1 f9bd 500d 5c3e 2228 67be
000001f0: c825 71be 74b9 cd3d 70da 6dbe e2b3 6fbe
00000200: 10d9 52bd 16b5 3dbe 20d3 eebc a44d da3d
00000210: 6c2d 9fbd 98ff 9cbd 56ac 2abe d0e8 383e
00000220: 4c08 78be 5aba 78be 46ee 2f3e 784f 29bd
00000230: f8d5 a53d 1c3e 773e b671 05be c071 56bd
00000240: e253 76be d616 603e 920f 633e 00fb 94bc
00000250: a073 d8bd ec63 89bd 7a2f 36be 1c6e c33d
00000260: 60d4 00bc dcd4 7abe 6c09 8ebd 30ec 263d
00000270: c6c4 6cbe 8028 babd 8031 c63c 2e3c 353e
00000280: 822f 44be 0839 473e f2ae 503e 88d4 603d
00000290: 60c3 b63c e47c 613e 6858 1dbd f2e6 10be
000002a0: 9429 683e 00a4 323b 14e7 fd3d 08c4 733e
000002b0: e835 a13d bcd8 0a3e 1ebd 3d3e e018 373c
000002c0: 3e35 30be 78ed 39be c87f 793e 406d cb3c
000002d0: 84d3 d2bd 58d4 b13d f0ea f5bd 3832 333d
000002e0: 6004 6a3e 869c 7ebe 3021 903c 2092 e73c
000002f0: f05e ccbd f01f 93bc 0026 103c a0e6 493e
00000300: f4dc f83d 908f 6cbd e0a0 babd b8da 59bd
00000310: 0a81 033e 80fc 0e3d 663b 3f3e e694 6ebe
00000320: bc17 923d fcca 50be e0b8 97bd 1884 423e
00000330: 0a10 323e 6c0b 63be 0019 56be 60f7 0abd
00000340: b0e8 ffbc 0eb8 5f3e a0fc 713c d6cc 5e3e
00000350: e082 dd3c 488d 67be d4a3 76be d22f 50be
00000360: a020 cd3c 425e 7abe 1e70 1dbe 38e9 633d
00000370: 88b2 55bd aaab 74be a651 2cbe d023 0fbd
00000380: e005 8abc 9073 2cbd 78e7 483d c40c ed3d
00000390: 7a59 3bbe 2e6e 7bbe 4878 3cbe 7aee 19be
000003a0: 883f 143d 66fc 12be 507d 353d 8440 613e
000003b0: 48b2 f13d 0008 f0b9 7838 13bd 684d 0a3e
000003c0: e4a4 16be 004c acba 7802 313d 60bc 7b3e
000003d0: 5863 68be 983d 0b3e 5016 78be e45e 0cbe
000003e0: a6b7 59be 6475 b43d 1c32 0a3e da30 6e3e
000003f0: dcb2 05be 1892 f9bd d816 dd3d 20cf 47bd

conv_proj.block.norm.weight f4 [16]
1.0 1.0 1.0 1.0 1.0 1.0 1.0 1.0
1.0 1.0 1.0 1.0 1.0 1.0 1.0 1.0
00000000: 0000 803f 0000 803f 0000 803f 0000 803f
00000010: 0000 803f 0000 803f 0000 803f 0000 803f
00000020: 0000 803f 0000 803f 0000 803f 0000 803f
00000030: 0000 803f 0000 803f 0000 803f 0000 803f

conv_proj.block.norm.bias f4 [16]
0.0 0.0 0.0 0.0 0.0 0.0 0.0 0.0
0.0 0.0 0.0 0.0 0.0 0.0 0.0 0.0
00000000: 0000 0000 0000 0000 0000 0000 0000 0000
00000010: 0000 0000 0000 0000 0000 0000 0000 0000
00000020: 0000 0000 0000 0000 0000 0000 0000 0000
00000030: 0000 0000 0000 0000 0000 0000 0000 0000

conv_proj.block.norm.running_mean f4 [16]
0.0 0.0 0.0 0.0 0.0 0.0 0.0 0.0
0.0 0.0 0.0 0.0 0.0 0.0 0.0 0.0
00000000: 0000 0000 0000 0000 0000 0000 0000 0000
00000010: 0000 0000 0000 0000 0000 0000 0000 0000
00000020: 0000 0000 0000 0000 0000 0000 0000 0000
00000030: 0000 0000 0000 0000 0000 0000 0000 0000

conv_proj.block.norm.running_var f4 [16]
1.0 1.0 1.0 1.0 1.0 1.0 1.0 1.0
1.0 1.0 1.0 1.0 1.0 1.0 1.0 1.0
00000000: 0000 803f 0000 803f 0000 803f 0000 803f
00000010: 0000 803f 0000 803f 0000 803f 0000 803f
00000020: 0000 803f 0000 803f 0000 803f 0000 803f
00000030: 0000 803f 0000 803f 0000 803f 0000 803f

fusion.block.conv.weight f4 [16, 32, 1, 1]
-0.0026586056 -0.012098134 -0.061911866 -0.02537702 -0.07882584 0.07114251 -0.010658115 0.1664703
-0.005771041 0.08919178 0.14299886 -0.0036466867 -0.029373556 0.09276371 0.173413 0.057290882
0.09057431 -0.10047035 0.05139421 -0.14110777 0.13769566 0.030179307 0.033452526 -0.089458704
0.067561924 0.16783272 0.10505222 0.12712584 0.0824516 -0.013495877 -0.0049583167 -0.16920444
-0.14368606 -0.022249848 -0.072173655 -0.097503364 0.06572962 -0.14205003 0.08630814 0.0047778785
-0.017120615 -0.12689382 -0.0794408 0.014791146 -0.14161083 -0.06635802 -0.14967158 -0.11509642
0.025660962 0.07207695 -0.05269578 0.061824262 -0.08082882 0.14113621 0.048357606 0.16590188
-0.1577262 -0.1144516 -0.07237745 -0.011036575 -0.13566773 0.14612623 0.109173164 0.025378853
0.14918895 0.07553713 -0.13611902 -0.1740378 0.17200075 -0.085231505 0.13531537 -0.07076966
-0.15306062 -0.010252193 0.123582676 0.04947865 -0.019038975 0.110177085 0.07999782 0.0074014217
0.14220177 0.13269527 -0.06955425 -0.10570625 0.14820679 -0.043686092 0.041075855 0.035855755
-0.0182233 0.076520756 -0.14640406 0.10317178 -0.0052347034 0.12705682 0.058666915 -0.09764607
0.04835485 0.12005468 0.0037731528 0.14608781 0.07930885 -0.124486 -0.17061625 0.020073652
-0.075834446 -0.108244315 -0.13918936 0.018536389 -0.14397296 -0.10350178 -0.14699978 0.1080239
-0.11071018 0.013678253 0.1459652 0.14051653 0.010668203 0.14586185 0.07239422 0.082394406
-0.0033176094 0.17418204 0.0185868 -0.1601357 -0.12721246 0.09828217 -0.010345846 0.053947642
0.10259475 -0.08717096 -0.094648205 0.16611077 -0.01966235 -0.0023301095 0.06419368 0.111925736
-0.0076904744 0.14315395 -0.060544685 -0.17262366 -0.16654488 0.15490238 0.11001141 -0.136265
0.08980496 -0.16969505 0.015435547 -0.0067497343 -0.14349139 -0.00031076372 0.1631579 -0.082810715
-0.16064686 -0.00049099326 0.053754136 0.038360655 0.15603872 -0.06965122 -0.16284814 0.036080718
0.14349471 -0.023043811 -0.12961403 0.017151073 0.025822178 0.077372566 0.14120375 -0.014037177
-0.08055959 0.11328854 0.05238813 0.01597941 -0.102030076 -0.06262398 -0.16428038 0.14603592
-0.047895193 -0.16031492 -0.067399554 -0.016000226 -0.17299739 -0.016406953 -0.007948458 -0.059934296
0.08500527 -0.051503867 -0.068244934 0.04109378 0.042419776 0.06048113 0.124461755 0.095581636
-0.087527014 0.17438982 -0.0027161986 0.06261167 -0.10550237 0.08794977 -0.040717185 0.110638395
-0.14754434 -0.011966497 0.13025622 -0.14538188 0.009568006 0.054873854 -0.10442733 -0.08071252
-0.034481093 0.14334919 -0.0750527 0.07134108 -0.02346553 -0.15011969 -0.0013282597 -0.0033272654
0.0818923 0.003296852 0.072820395 0.0567836 0.07111439 0.09315036 0.0041170865 -0.12789227
0.13714339 -0.08362442 0.05508989 -0.033638984 -0.06970402 0.082937405 -0.13520525 0.15844838
-0.12093039 0.13082306 0.06256917 0.1548677 -0.040247142 -0.17499854 -0.03708236 -0.017535433
0.045250535 0.05439411 -0.07838015 -0.057587937 0.007641956 0.053151518 -0.09642362 0.062301174
-0.101537086 -0.16417786 -0.11576715 0.00045506656 -0.10891622 0.028104916 -0.13519807 -0.11309034
00000000: 003c 2ebb 4037 46bc 4c97 7dbd 78e3 cfbc
00000010: 716f a1bd 2ab3 913d 609f 2ebc 3177 2a3e
00000020: 001b bdbb 2eaa b63d 4b6e 123e 40fd 6ebb
00000030: d0a0 f0bc e6fa bd3d 2d93 313e d8a9 6a3d
00000040: 067f b93d 66c3 cdbd bc82 523d 8e7e 10be
00000050: 1700 0d3e 983a f73c 8405 093d 2036 b7bd
00000060: e85d 8a3d 57dc 2b3e 9e25 d73d 472d 023e
00000070: 62dc a83d d01d 5dbc 6079 a2bb ee43 2dbe
00000080: 7022 13be 5045 b6bc c8cf 93bd d8af c7bd
00000090: 409d 863d 9075 11be 52c2 b03d c08f 9c3b
000000a0: 8840 8cbc 74f0 01be dcb1 a2bd 9056 723c
000000b0: 6e02 11be b7e6 87bd 8243 19be acb7 ebbd
000000c0: f036 d23c 149d 933d 88d7 57bd 703b 7d3d
000000d0: 9589 a5bd 0386 103e a012 463d 2fe2 293e
000000e0: fa82 21be 9a65 eabd a13a 94bd c0d2 34bc
000000f0: 7bec 0abe 1da2 153e 2e96 df3d 50e7 cf3c
00000100: fdc4 183e 36b3 9a3d c962 0bbe f736 32be
00000110: f720 303e db8d aebd 1d90 0a3e afef 90bd
00000120: ecbb 1cbe d0f8 27bc ea18 fd3d 20aa 4a3d
00000130: a0f7 9bbc 86a4 e13d e6d5 a33d a087 f23b
00000140: 579d 113e 45e1 073e 7572 8ebd 857c d8bd
00000150: 85c3 173e 30f0 32bd 283f 283d 7cdd 123d
00000160: 0849 95bc eab6 9c3d f2ea 15be ba4b d33d
00000170: e087 abbb 2f1b 023e b84c 703d aafa c7bd
00000180: bc0f 463d 3adf f53d 0047 773b 0b98 153e
00000190: ae6c a23d 84f2 febd 07b6 2ebe 8071 a43c
000001a0: 174f 9bbd 32af ddbd a887 0ebe a0d9 973c
000001b0: a66d 13be bef8 d3bd 1c87 16be a23b dd3d
000001c0: 05bc e2bd c01a 603c e777 153e 91e3 0f3e
000001d0: b0c9 2e3c cf5c 153e 6c43 943d 66be a83d
000001e0: 406c 59bb c75c 323e 5843 983c 9dfa 23be
000001f0: fc43 02be 2a48 c93d a081 29bc 34f8 5c3d
00000200: 321d d23d b086 b2bd ebd6 c1bd f118 2a3e
00000210: f012 a1bc c0b4 18bb fa77 833d 5239 e53d
00000220: 6000 fcbb f396 123e b4fd 77bd 42c4 30be
00000230: be8a 2abe bb9e 1e3e aa4d e13d 0d89 0bbe
00000240: aaeb b73d 8ac4 2dbe 60e5 7c3c e02c ddbb
00000250: 68ef 12be 00ee a2b9 dd12 273e aa98 a9bd
00000260: 9c80 24be 00b6 00ba 4c2d 5c3d 1020 1d3d
00000270: 9dc8 1f3e 4da5 8ebd aac1 26be 60c9 133d
00000280: 47f0 123e 60c6 bcbc 8ab9 04be 6880 8c3c
00000290: 0889 d33c 8275 9e3d b797 103e 30fc 65bc
000002a0: 6dfc a4bd d203 e83d f094 563d 40e7 823c
000002b0: 25f5 d0bd 0041 80bd 1e39 28be 718a 153e
000002c0: c02d 44bd 9829 24be c708 8abd e812 83bc
000002d0: 3a26 31be e067 86bc 403a 02bc aa7d 75bd
000002e0: 3e17 ae3d b8f5 52bd 00c4 8bbd f451 283d
000002f0: 5cc0 2d3d 10bb 773d cee5 fe3d 4ec0 c33d
00000300: 5d41 b3bd 3f93 323e 4002 32bb 8c3a 803d
00000310: a011 d8bd 021f b43d 10c7 26bd 6296 e23d
00000320: dd15 17be 200f 44bc e361 053e fdde 14be
00000330: 20c3 1c3c 68c3 603d ffdd d5bd 9b4c a5bd
00000340: 0c3c 0dbd 21ca 123e 3bb5 99bd 461b 923d
00000350: c83a c0bc fab8 19be 0019 aeba 400e 5abb
00000360: 26b7 a73d 0010 583b dc22 953d ec95 683d
00000370: 6ca4 913d 9ec5 be3d a0e8 863b 31f6 02be
00000380: 516f 0c3e 4843 abbd f0a5 613d 08c9 09bd
00000390: fbc0 8ebd 16db a93d 3f73 0abe 4b40 223e
000003a0: 5aaa f7bd 7bf6 053e 4424 803d a395 1e3e
000003b0: 30da 24bd d132 33be ace3 17bd 78a6 8fbc
000003c0: a058 393d 5ccc 5e3d c685 a0bd 54e1 6bbd
000003d0: 6069 fa3b 68b5 593d bf79 c5bd 842f 7f3d
000003e0: adf2 cfbd 3e1e 28be 5417 edbd 0096 ee39
000003f0: 780f dfbd 483c e63c 5d71 0abe e89b e7bd

fusion.block.norm.weight f4 [16]
1.0 1.0 1.0 1.0 1.0 1.0 1.0 1.0
1.0 1.0 1.0 1.0 1.0 1.0 1.0 1.0
00000000: 0000 803f 0000 803f 0000 803f 0000 803f
00000010: 0000 803f 0000 803f 0000 803f 0000 803f
00000020: 0000 803f 0000 803f 0000 803f 0000 803f
00000030: 0000 803f 0000 803f 0000 803f 0000 803f

fusion.block.norm.bias f4 [16]
0.0 0.0 0.0 0.0 0.0 0.0 0.0 0.0
0.0 0.0 0.0 0.0 0.0 0.0 0.0 0.0
00000000: 0000 0000 0000 0000 0000 0000 0000 0000
00000010: 0000 0000 0000 0000 0000 0000 0000 0000
00000020: 0000 0000 0000 0000 0000 0000 0000 0000
00000030: 0000 0000 0000 0000 0000 0000 0000 0000

fusion.block.norm.running_mean f4 [16]
0.0 0.0 0.0 0.0 0.0 0.0 0.0 0.0
0.0 0.0 0.0 0.0 0.0 0.0 0.0 0.0
00000000: 0000 0000 0000 0000 0000 0000 0000 0000
00000010: 0000 0000 0000 0000 0000 0000 0000 0000
00000020: 0000 0000 0000 0000 0000 0000 0000 0000
00000030: 0000 0000 0000 0000 0000 0000 0000 0000

fusion.block.norm.running_var f4 [16]
1.0 1.0 1.0 1.0 1.0 1.0 1.0 1.0
1.0 1.0 1.0 1.0 1.0 1.0 1.0 1.0
00000000: 0000 803f 0000 803f 0000 803f 0000 803f
00000010: 0000 803f 0000 803f 0000 803f 0000 803f
00000020: 0000 803f 0000 803f 0000 803f 0000 803f
00000030: 0000 803f 0000 803f 0000 803f 0000 803f
